W&B Run: https://app.wandb.ai/matheus-asilva/alzheimer-dl/runs/l3eacft5
Model: "sequential"
_________________________________________________________________
Layer (type)                 Output Shape              Param #   
=================================================================
conv2d (Conv2D)              (None, 222, 222, 32)      896       
_________________________________________________________________
conv2d_1 (Conv2D)            (None, 220, 220, 64)      18496     
_________________________________________________________________
max_pooling2d (MaxPooling2D) (None, 110, 110, 64)      0         
_________________________________________________________________
dropout (Dropout)            (None, 110, 110, 64)      0         
_________________________________________________________________
flatten (Flatten)            (None, 774400)            0         
_________________________________________________________________
dense (Dense)                (None, 128)               99123328  
_________________________________________________________________
dropout_1 (Dropout)          (None, 128)               0         
_________________________________________________________________
dense_1 (Dense)              (None, 3)                 387       
=================================================================
Total params: 99,143,107
Trainable params: 99,143,107
Non-trainable params: 0
_________________________________________________________________
Epoch 1/10
Traceback (most recent call last):
  File "<stdin>", line 6, in <module>
  File "D:\TCC\alzheimer-deep-learning\training\util.py", line 46, in train_model
    _history = model.fit(dataset=dataset, batch_size=batch_size, epochs=epochs, callbacks=callbacks)
…
        [255, 255, 255]],

       [[255, 255, 255],
        [255, 255, 255],
        [255, 255, 255],
        ...,
        [255, 255, 255],
        [255, 255, 255],
        [255, 255, 255]],

       [[255, 255, 255],
        [255, 255, 255],
        [255, 255, 255],
        ...,
        [255, 255, 255],
        [255, 255, 255],
        [255, 255, 255]]], dtype=uint8)
Model: "sequential"
_________________________________________________________________
Layer (type)                 Output Shape              Param #   
=================================================================
conv2d (Conv2D)              (None, 222, 222, 32)      896       
_________________________________________________________________
conv2d_1 (Conv2D)            (None, 220, 220, 64)      18496     
_________________________________________________________________
max_pooling2d (MaxPooling2D) (None, 110, 110, 64)      0         
_________________________________________________________________
dropout (Dropout)            (None, 110, 110, 64)      0         
_________________________________________________________________
flatten (Flatten)            (None, 774400)            0         
_________________________________________________________________
dense (Dense)                (None, 128)               99123328  
_________________________________________________________________
